trained_emotion_model.pth (torch, 7808 bytes, 4 tensors)

fc1.weight f4 [64, 13]
00000000: 9454 c03d 006f 093c 706f 703d 70dd c4bc
00000010: 40ab cabb b65b 623e 2047 77bc 80bc b1bb
00000020: 20c5 4f3e 16f1 55be 3404 2dbe 3bde 09be
00000030: ce8d 283e dc40 d43d fc20 813d fe27 0c3e
00000040: 247c 92bd 3ef1 693e c671 73be 7080 ce3d
00000050: 0074 5ebc 3039 11bd 7e4f 01be 09a5 25be
00000060: 61fe 5dbe 465a 033e b0fa bc3c 40a6 013d
00000070: a46f 603e 8c2f fc3d 9a90 f9bd e0aa bc3d
00000080: a001 ebbd 31c0 73be ea6c 113e 1677 373e
00000090: 32a8 bebd a8dc 47be 8acb ffbd 8af6 0abe
000000a0: 1652 353e 4cf8 8ebe 618b ecbd 0746 083e
000000b0: 0040 293c 0852 133e e8dd 563e 60f9 a0bb
000000c0: abd5 5abc 4ddd da3d 1077 383e fcad 03be
000000d0: 805f e33d 279b 1bbe 6e41 bcbd 9295 663e
000000e0: f35e 843e 2b23 04be 3431 093e 3cab 9c3d
000000f0: c065 f63d 62d8 1cbe 0879 c73d 8800 263d
00000100: 83bf 813e aa7a 2d3e dcbb 84bd e02c 363c
00000110: 5805 573e e40e 8bbe 3a1c 6a3e 4cf3 cebd
00000120: af8b 853e 64bc 013e b177 8d3e b886 9bbd
00000130: 49b8 44be b8cc 42be f6d0 b6bb 25bf 8e3d
00000140: 9373 903e d20f 2dbe 28c6 d0bd 3316 1bbe
00000150: ad6d 3dbd 08a9 453e 8883 063e c82d 653e
00000160: 583e e4bd 184b 82bd 81bf 6fbc a016 6e3c
00000170: 403e 803c 8c12 e13d ff1f 8bbe 5816 943d
00000180: b83c 07be 1817 463d 907c ba3c 3064 ca3c
00000190: 5bd8 00be 8042 84bb 0038 043e ae06 ecbd
000001a0: 555d 81be 1f89 acbd 6091 2ebe bfe4 20be
000001b0: a597 9d3e c3a5 e33c 8fef a9bd 4e37 5c3e
000001c0: 5013 7abe 4439 373d 6219 953e a8ee 81be
000001d0: d40a 703e a43c f33d 8c18 30bd 7832 393d
000001e0: e0c8 03bc 5c46 2dbe 001a 343b f6d7 073e
000001f0: 6e3f 313e 00b2 dc3d e4a8 8a3d ee2f 61be
00000200: 9cc7 b53d 28f8 bf3d edf8 8b3e 8080 023b
00000210: 6843 1dbe 0071 e2bc 409c f43d 5145 6cbe
00000220: e80e 89be 082b 87bd 60af 44bc e287 30be
00000230: 2023 91bc f86c 863d 4c7c 18bd 98e7 d83d
00000240: af78 7bbe 28b4 14be a892 3b3d 0156 813e
00000250: 801b 353d 203b 3abc 4927 4ebe 503c fd3d
00000260: d8b3 293d f8c3 7bbd 007a 763c be2d d3bd
00000270: 7000 fa3d 5a02 98bd 0a62 2b3e aa6f 663e
00000280: 641c a63d f65f bebd a687 193e 2497 3c3e
00000290: d085 86bc a053 9e3c d86c 43be 047c c93d
000002a0: 64c4 44bd 7380 1dbe 7a40 89be 8c7c 8b3e
000002b0: b683 afbd 8e5a 993e ec59 843e 30f0 923e
000002c0: 4fa4 4d3e 3f49 8d3e 954e bebd ece2 8f3e
000002d0: 529e 593e 2a0c 44be 0d82 8d3e 0b5f 8dbe
000002e0: 7ebc 61be c4ce e3bd aa72 8bbd 6c37 7cbe
000002f0: b6f8 edbd f9ff 38be 7352 6abe a651 62be
00000300: a0ca 573e 8e26 213e 020f 1fbe 5253 1d3c
00000310: 0100 213e f796 69be 7544 13bd 518c 0bbe
00000320: 40c3 0cbe 3b06 3b3e c1f4 98be 65ac 743e
00000330: 05a0 043e 5ee9 d33b efb1 5d3e 4631 943e
00000340: 94f0 893d 0040 373d 2068 17be 807f d3bb
00000350: 4afe b2bd b04e d33c ab36 813e 3ab7 3abe
00000360: 00be 51bb 666a 5c3e 68f1 c93d 36de e0bd
00000370: e3bd 51be 4783 46be 0e69 803e 3497 42be
00000380: b3b7 3cbd 64c0 023e 38d6 2d3e 39f8 3d3e
00000390: a5eb 90be 625e e2bd 2863 f5bd 6a83 d4bc
000003a0: 0c83 893e 5ff7 0b3d fb2b 6abe abd9 95bd
000003b0: dc49 4ebe 9799 8cbd 2ef8 8b3e 74af 87bd
000003c0: fcef 39be e52b 42be 23b8 f33b f793 103e
000003d0: 6bdb 803d 5d67 07be 98dc 26bb f046 7f3d
000003e0: 464f b7bd 3c2e ef3d c211 7c3e 1c9f 23be
000003f0: 66b0 96bd 7c3e 5abe 414e 843e c46b 1dbd
0.09391132 0.008388281 0.058700025 -0.02403137 -0.0061849654 0.22105297 -0.015092641 -0.0054240823
0.20290041 -0.20892748 -0.16896135 -0.1346368 0.16460344 0.103639334 0.063051194 0.13687131
-0.07152584 0.22845933 -0.2377387 0.10083091 -0.013577461 -0.03545493 -0.1262798 -0.16176237
-0.21679069 0.12827405 0.023068756 0.03165269 0.21917588 0.12313756 -0.12185784 0.09212279
-0.11474919 -0.23803784 0.14201704 0.17916521 -0.093094245 -0.19517767 -0.12489994 -0.1357061
0.17707095 -0.2792381 -0.11550022 0.13307963 0.0103302 0.14386761 0.20983088 -0.0049125403
-0.0133566065 0.10686741 0.18014169 -0.12859339 0.111021996 -0.15195905 -0.09192167 0.22517994
0.2585369 -0.1290404 0.13397676 0.07649848 0.12031126 -0.15316918 0.09739882 0.04052785
0.25341424 0.16941324 -0.06481144 0.0111190975 0.20998132 -0.27159798 0.2286233 -0.10104999
0.26083133 0.12669522 0.2763038 -0.07594055 -0.19210924 -0.19023407 -0.0055791093 0.06970052
0.28213176 -0.16900566 -0.10194045 -0.15145187 -0.046247173 0.19302762 0.13136113 0.22380745
-0.111447036 -0.06361979 -0.01463306 0.014531761 0.015654683 0.10989866 -0.2717285 0.07230824
-0.13206756 0.048361868 0.022764474 0.024705976 -0.12582533 -0.0040362477 0.12911987 -0.115247115
-0.2526652 -0.08424591 -0.17047644 -0.1571226 0.30779758 0.027789002 -0.08297645 0.21505472
-0.2442143 0.044732347 0.29120928 -0.25377393 0.2344163 0.11876801 -0.04299216 0.045214146
-0.008043498 -0.16921371 0.0027481318 0.13265976 0.17309353 0.10776138 0.067704946 -0.2199094
0.08875963 0.09373504 0.27338353 0.0019913018 -0.15357745 -0.027641773 0.11943865 -0.23073317
-0.26769185 -0.066000044 -0.012004703 -0.17239335 -0.017716944 0.06563753 -0.037227914 0.10591048
-0.24557756 -0.14521849 0.04579416 0.25260928 0.04421568 -0.011366636 -0.20132174 0.12365019
0.041431278 -0.061466187 0.0150437355 -0.10311459 0.12207115 -0.074223235 0.16736618 0.22503534
0.08110884 -0.09295647 0.14993152 0.1841703 -0.016421229 0.019326985 -0.1908449 0.09838107
-0.048038855 -0.1538103 -0.26807004 0.2724346 -0.08570044 0.299519 0.25849855 0.28698874
0.2008221 0.27594945 -0.09292332 0.28102815 0.212518 -0.19145265 0.27638283 -0.27611575
-0.2204456 -0.11123422 -0.0680898 -0.24630517 -0.116197035 -0.18066396 -0.22883014 -0.22101459
0.21073389 0.15737364 -0.15533069 0.009602385 0.15722658 -0.22811495 -0.035953958 -0.13627745
-0.13746357 0.18264095 -0.29874232 0.23893888 0.12951668 0.0064670285 0.21649908 0.28943843
0.0673534 0.04473877 -0.14785814 -0.006454408 -0.08739908 0.025794357 0.2523702 -0.18233958
-0.0032004118 0.21524963 0.09860498 -0.109798834 -0.20482592 -0.19386016 0.2508015 -0.19002992
-0.046073627 0.12768704 0.16976249 0.1855172 -0.28304783 -0.11053158 -0.11981803 -0.02594157
0.26857793 0.03417146 -0.2286834 -0.073169075 -0.20145363 -0.068652324 0.27337784 -0.06625262
-0.18157953 -0.18962057 0.0074377223 0.14118944 0.06291851 -0.13223024 -0.0025461074 0.06232351
-0.08950667 0.116787404 0.24616149 -0.15978664 -0.07357864 -0.21312898 0.25840953 -0.03843285

fc1.bias f4 [64]
00000000: 004f f4bd a08c d8bc 18a3 2f3d 651b ebbd
00000010: e0d9 29bd da94 55be 7f5a 46be 7ec5 673e
00000020: 1f38 153e 45c5 10be a8a6 38be 6f56 833e
00000030: cec1 ebbd ef0f 63be f281 d1bd dfdb 91be
00000040: 00d2 b53d e28f 1e3d 3333 b33c c09f 113c
00000050: 751f 183e 9c97 14bd 6ec3 7fbe 85dc 323e
00000060: ae26 653e 7e46 02be 58aa 7b3d e96a 05be
00000070: f443 273e 377b bbbd 5367 883e 04c5 4dbe
00000080: 669d 15be 0686 f33d 30e6 533d dcfb dfbd
00000090: 86ae 773e b70b 883e b5c8 50bc 52cd b33b
000000a0: 0e61 003e 7181 ffbd a84e f73d a268 2abe
000000b0: 3bb1 53be e289 503d 2888 35bd 02de 4fbe
000000c0: ce52 c3bd c028 b33b c187 8a3e 9a88 65be
000000d0: e20b ae3c 3241 75be 26a4 acbd 5a81 9f3d
000000e0: ec68 7f3e 74de 40bd e137 343e 8cd4 7ebe
000000f0: 2f8d d03c d841 40be 1c68 493e 5d32 123e
-0.119291306 -0.026434243 0.042880148 -0.114798345 -0.041467547 -0.20857564 -0.19370459 0.22633931
0.1457219 -0.14137752 -0.18032324 0.2565188 -0.11511575 -0.22174047 -0.10229863 -0.2848806
0.08877945 0.038711436 0.021875 0.008888185 0.1485575 -0.0362774 -0.24976894 0.17466934
0.22378036 -0.12722203 0.06144175 -0.13029064 0.16334516 -0.09154361 0.2664133 -0.20094687
-0.14610824 0.11890797 0.051733196 -0.1093671 0.24187669 0.26571438 -0.012743165 0.0054871226
0.12537023 -0.12475861 0.12075549 -0.16641477 -0.20673077 0.050912745 -0.0443193 -0.20299533
-0.09537278 0.0054675043 0.27056697 -0.2241539 0.0212459 -0.23950651 -0.08429746 0.07788344
0.24942368 -0.047087148 0.17599441 -0.24885768 0.025457947 -0.18775117 0.19668621 0.14277025

fc2.weight f4 [8, 64]
00000000: 96b4 f03d 8017 80bb 40ff 0f3d c908 993d
00000010: 60cb 1dbc 204b 083c 8a93 fdbc 00d3 ab3d
00000020: 875c 693c 7432 3f3d d001 e7bd f04a 12bd
00000030: 0c3b 4dbd 959f 4b3d b045 b43c 845e fb3d
00000040: 980e 06bd 5e49 85bc f3d7 eebc f003 3fbd
00000050: 0296 97bb b0af d63c 6c34 e13d 5dd9 94bd
00000060: fed1 fc3d 601b f73c 10d4 ec3d 3614 ee3d
00000070: a80f d53c 1c48 cc3d 3ec2 83bd bee1 e83d
00000080: 48f0 29bd 85e8 d43b 7ce5 033d 2692 a6bd
00000090: c062 d73d 70de 24bc a51a 96bd dcf1 28bd
000000a0: d385 8b3d d7f0 1c3c 98a2 643d 0c74 eebd
000000b0: 2e6e a53c cd6b 94bd b0d2 703d e6a7 a53d
000000c0: 8217 98bd 5204 da3d dcf0 4d3d bf67 3ebb
000000d0: 1eea 53bd e0de a33d c759 373d bd31 1e3e
000000e0: 6197 a03d 08c4 e93c 4f40 e13a 8b4f 883d
000000f0: 2bc2 0c3e ddb1 83bd bcbe 313d 217b 26bd
00000100: 205f 07bc 804c 013d 0ecf be3d ebaf 76bd
00000110: d0da 033c c843 abbd 2812 1c3d 021b 8dbd
00000120: f3c6 823d 8a16 e13d fe0b a9bd 3c48 773d
00000130: 6457 193d 463b ff3c 6810 a73d d7d7 b93d
00000140: 8494 55bd 8c56 f3bc c7a8 43bd 1032 e13c
00000150: 602e 3f3d e465 1bbd 3608 c7bd cb12 673d
00000160: 484a b5bd 48e0 e1bd f801 b43c 18bd 6a3d
00000170: 4897 1cbd 3c9a 9c3d 6006 b83b ac89 ec3d
00000180: bed5 92bd 2e74 7cbd 8004 953a c6d0 833d
00000190: 1244 d43d 689f ddbd 34a9 753d 8057 d33c
000001a0: 5f08 9cbd efa8 51bb 9c21 cf3d f8c5 3dbd
000001b0: c872 773d 779a c33c 4259 98bd 548b a6bd
000001c0: b06a fdbd c832 8ebd d080 d3bc 9ac0 c7bc
000001d0: 4f82 f7bc 0623 ab3d 108a fc3c 3c54 8f3d
000001e0: 1f15 0b3e b459 233d 56d6 dd3b 6595 9cbb
000001f0: 63fe 54bd 0faa 58bd 4880 1c3d 6e70 de3d
00000200: cc7e 2e3d 3cec 6bbd b8e8 7a3d 195e 2b3c
00000210: 96e8 ba3d c63d e43d a7a2 0f3d 18a5 a2bd
00000220: db8c adbd a056 b9bd 1884 c5bd ca94 debd
00000230: 5871 cdbc 2706 82bd e2bd adbd 9583 81bd
00000240: 805e e23a 0614 a83d 741e a5bd c03d c2bb
00000250: 05d1 e93c 24f6 6a3d 3e7a 8c3d 5534 3cbd
00000260: 4053 06bd faf1 c33d 005e 6d3d 0845 763d
00000270: 706b 233c 4aa0 303d f046 9cbc d00c c1bd
00000280: 9617 e93d 1f2a c8bd 3a7e fc3d 5aec eabd
00000290: fc11 a6bd a691 f43d 47a8 7cbd d4b8 673d
000002a0: 057f e23c 6574 873d ae45 bdbd f0fa 673d
000002b0: 4e6c 513d b57d 293d 8456 d53d c0da cd3d
000002c0: 9607 d1bd fcd3 27bd 2445 9a3d c978 a3bc
000002d0: de3c f43c 6008 48bc 3ec2 423d e8f0 9a3d
000002e0: 5033 5dbd e856 52bd 3f08 b43d 8548 56bc
000002f0: ac50 463d 6e09 9f3d a0a9 e0bb e442 5ebb
00000300: 2a67 9b3d 6e09 863d 94ae 383d 1d9f ec3d
00000310: 3c7a af3d 9467 953d 0197 86bd 806b f03a
00000320: 012f a53c a627 92bd d02c 4fbc 48cd 24bd
00000330: c248 f63d 512f 41bd c807 55bd 2ef5 9b3d
00000340: de00 c73d fcaa 553d d0e4 9b3d f84f a3bc
00000350: a3fe fbbc c0d6 62bc 0a76 f13d afa2 52bd
00000360: 68eb 8f3c aa8d b3bd 408a cc3d 189e 8d3c
00000370: 1276 b3bd 17f0 e9bc a6ed e7bd 78d4 ddbd
00000380: f452 4abd f2f8 ed3d fe39 99bd 98d5 99bc
00000390: 265e d23d 2c74 63bd 365d efbd 200c 9c3d
000003a0: 1961 c6bd c99a de3d 40f8 6bbc 101c e6bd
000003b0: 5bc1 fe3c b87b 6bbd 8412 2abd 6672 b6bd
000003c0: 9c1e 01bd 0069 293b 188f dcbd e59a 1a3c
000003d0: d394 fc3d 00c8 11bc 1b09 9dbd b4e2 dc3d
000003e0: a743 2f3d 8871 df3c 0054 7d3d cc73 a3bb
000003f0: 6825 ca3c 75c8 23bd e08e 71bd a520 663d
0.11753194 -0.0039090514 0.035155535 0.07472379 -0.009631008 0.008318692 -0.030954141 0.083898544
0.014243252 0.046678975 -0.112796426 -0.035715997 -0.05010514 0.049712736 0.022005886 0.12273887
-0.03272876 -0.016270336 -0.029155707 -0.046634614 -0.0046260366 0.026206821 0.10996327 -0.07268021
0.1234474 0.03016442 0.11563885 0.11624949 0.026008442 0.09974691 -0.06433533 0.11371182
-0.041488916 0.006497445 0.032201275 -0.08133344 0.10516882 -0.010062799 -0.07329301 -0.04124628
0.06812634 0.009578905 0.055819124 -0.11643228 0.02019414 -0.07247124 0.058794677 0.08088665
-0.07426359 0.10645355 0.05027853 -0.0029053537 -0.051736943 0.080014944 0.044763353 0.15448661
0.07841373 0.028535858 0.0017185303 0.066557966 0.13745944 -0.06430409 0.04339479 -0.04064477
-0.008262426 0.031567097 0.09316836 -0.060226362 0.008047774 -0.083625376 0.038103253 -0.06889917
0.06385603 0.10990627 -0.082542405 0.060371622 0.037436858 0.031156193 0.08157426 0.09074371
-0.05214359 -0.029704355 -0.04776838 0.027489692 0.046675086 -0.037938967 -0.09718363 0.056414407
-0.08852059 -0.110291064 0.021973595 0.05730924 -0.03823021 0.07646605 0.0056159943 0.11549696
-0.07169674 -0.061634235 0.0011369139 0.06436305 0.10364546 -0.1082142 0.059975818 0.02579856
-0.07618784 -0.0031991561 0.10113832 -0.046331376 0.0604122 0.023877366 -0.074388996 -0.081320435
-0.12373865 -0.069432795 -0.025818259 -0.024383832 -0.030213503 0.083562896 0.030827552 0.06998488
0.13582276 0.03988047 0.0067699356 -0.0047785514 -0.052000415 -0.052896556 0.038208276 0.10861288
0.04260139 -0.057598338 0.061257094 0.010459446 0.091263935 0.11144595 0.035067227 -0.079416454
-0.08474132 -0.090497255 -0.096443355 -0.10868223 -0.02507846 -0.0634883 -0.08483483 -0.063239254
0.0017270595 0.08206944 -0.08062449 -0.0059277713 0.028542051 0.057363644 0.06859253 -0.045948345
-0.032794237 0.09567638 0.057950974 0.060124427 0.009974346 0.043121614 -0.019076794 -0.09426272
0.11381452 -0.09773659 0.12328763 -0.11470862 -0.08108899 0.11941843 -0.06168392 0.05657275
0.027648458 0.06613997 -0.09241806 0.056635797 0.051128678 0.04137965 0.10416892 0.10051489
-0.10206525 -0.04097365 0.07532719 -0.019955056 0.02981418 -0.012209028 0.047548525 0.075654805
-0.054004014 -0.05135241 0.08790635 -0.013078813 0.04841678 0.077654704 -0.0068561584 -0.0033914382
0.07588036 0.06544767 0.045088366 0.11553786 0.08568236 0.072951466 -0.065717705 0.0018342584
0.020164015 -0.071364686 -0.0126449615 -0.040234834 0.12025596 -0.047164265 -0.052009374 0.07615124
0.09716962 0.052165017 0.07612002 -0.019935593 -0.030761069 -0.013845146 0.11790092 -0.05142468
0.017568305 -0.08767255 0.099873066 0.017287299 -0.087627545 -0.028556867 -0.11324625 -0.10831541
-0.049395517 0.11619748 -0.07481764 -0.018778607 0.10271864 -0.055530712 -0.116877005 0.076195
-0.09686489 0.10869367 -0.014402449 -0.11235821 0.031098058 -0.057491034 -0.041521564 -0.089085385
-0.031523332 0.0025849938 -0.107694805 0.009436344 0.123330735 -0.008897781 -0.07667752 0.10785428
0.042789128 0.027275816 0.061847687 -0.0049881693 0.02467604 -0.039986093 -0.058974147 0.056183476

fc2.bias f4 [8]
00000000: 1963 1c3e bdb2 df3d 938c 9c3d 4552 703d
00000010: 9207 c23d 50bf 8dbd 61eb 9c3c 86a0 dfbd
0.15272178 0.109227635 0.07644 0.05867221 0.094741 -0.069212556 0.019155206 -0.10919289
